…
Expected output dimension of layer max_pooling1d: 23.0
Expected output dimension of layer conv1d_flipout_1: 10.0
Expected output dimension of layer max_pooling1d_1: 9.0
Expected output dimension of layer conv1d_flipout_2: 8.0
Model: "functional_1"
_________________________________________________________________
Layer (type)                 Output Shape              Param #   
=================================================================
input_1 (InputLayer)         [(None, 100, 4)]          0         
_________________________________________________________________
conv1d_flipout (Conv1DFlipou (None, 46, 8)             648       
_________________________________________________________________
max_pooling1d (MaxPooling1D) (None, 23, 8)             0         
_________________________________________________________________
batch_normalization (BatchNo (None, 23, 8)             32        
_________________________________________________________________
conv1d_flipout_1 (Conv1DFlip (None, 10, 16)            1296      
_________________________________________________________________
max_pooling1d_1 (MaxPooling1 (None, 9, 16)             0         
_________________________________________________________________
batch_normalization_1 (Batch (None, 9, 16)             64        
_________________________________________________________________
conv1d_flipout_2 (Conv1DFlip (None, 8, 32)             2080      
_________________________________________________________________
batch_normalization_2 (Batch (None, 8, 32)             128       
_________________________________________________________________
global_average_pooling1d (Gl (None, 32)                0         
_________________________________________________________________
dense_flipout (DenseFlipout) (None, 32)                2080      
_________________________________________________________________
batch_normalization_3 (Batch (None, 32)                128       
_________________________________________________________________
dense_flipout_1 (DenseFlipou (None, 2)                 130       
=================================================================
Total params: 6,586
Trainable params: 6,410
Non-trainable params: 176
_________________________________________________________________
None
Found GPU at: /device:GPU:0
------------ TRAINING ------------

Features shape: (2500, 100, 4)
Labels shape: (2500, 2)
Initializing checkpoint from scratch.
Epoch 0
Validation loss decreased. Saved checkpoint for step 1: /content/drive/My Drive/ML_REACT/models/MM/bayes_2/1910_EG_oneVSall_ub/tf_ckpts/ckpt-1
…
